…
Task 0: count = 135 | target average = -6.824769


Scaffold 5
Task 0: count = 110 | target average = -2.684366


Scaffold 6
Task 0: count = 95 | target average = -1.321900


Scaffold 7
Task 0: count = 73 | target average = -5.256434


Scaffold 8
Task 0: count = 54 | target average = -4.558373


Scaffold 9
Task 0: count = 52 | target average = -1.722385


Total size = 8,400 | train size = 6,720 | val size = 840 | test size = 840
Fitting scaler
Building model 0
MoleculeModel(
  (encoder): MPN(
    (encoder): MPNEncoder(
      (dropout_layer): Dropout(p=0.4, inplace=False)
      (act_func): ReLU()
      (W_i): Linear(in_features=147, out_features=1300, bias=False)
      (W_h): Linear(in_features=1300, out_features=1300, bias=False)
      (W_o): Linear(in_features=1433, out_features=1300, bias=True)
    )
  )
  (ffn): Sequential(
    (0): Dropout(p=0.4, inplace=False)
    (1): Linear(in_features=1300, out_features=1300, bias=True)
    (2): ReLU()
    (3): Dropout(p=0.4, inplace=False)
    (4): Linear(in_features=1300, out_features=1, bias=True)
  )
)
Number of parameters = 5,437,901
Moving model to cuda
Epoch 0
Loss = 2.1517e-02, PNorm = 65.0159, GNorm = 6.4692, lr_0 = 1.3694e-04
Loss = 1.8093e-02, PNorm = 65.0237, GNorm = 2.8890, lr_0 = 1.7052e-04
Loss = 1.9131e-02, PNorm = 65.0343, GNorm = 3.7987, lr_0 = 2.0410e-04
Loss = 1.6375e-02, PNorm = 65.0493, GNorm = 2.9770, lr_0 = 2.3769e-04
Loss = 1.3926e-02, PNorm = 65.0715, GNorm = 4.4209, lr_0 = 2.7127e-04
…
Task 0: count = 135 | target average = -6.824769


Scaffold 5
Task 0: count = 110 | target average = -2.684366


Scaffold 6
Task 0: count = 95 | target average = -1.321900


Scaffold 7
Task 0: count = 73 | target average = -5.256434


Scaffold 8
Task 0: count = 54 | target average = -4.558373


Scaffold 9
Task 0: count = 52 | target average = -1.722385


Total size = 8,400 | train size = 6,720 | val size = 840 | test size = 840
Fitting scaler
Building model 0
MoleculeModel(
  (encoder): MPN(
    (encoder): MPNEncoder(
      (dropout_layer): Dropout(p=0.25, inplace=False)
      (act_func): ReLU()
      (W_i): Linear(in_features=147, out_features=1400, bias=False)
      (W_h): Linear(in_features=1400, out_features=1400, bias=False)
      (W_o): Linear(in_features=1533, out_features=1400, bias=True)
    )
  )
  (ffn): Sequential(
    (0): Dropout(p=0.25, inplace=False)
    (1): Linear(in_features=1400, out_features=1400, bias=True)
    (2): ReLU()
    (3): Dropout(p=0.25, inplace=False)
    (4): Linear(in_features=1400, out_features=1, bias=True)
  )
)
Number of parameters = 6,276,201
Moving model to cuda
Epoch 0
Loss = 2.4162e-02, PNorm = 67.3201, GNorm = 3.5992, lr_0 = 1.3694e-04
Loss = 1.9843e-02, PNorm = 67.3283, GNorm = 5.4032, lr_0 = 1.7052e-04
Loss = 1.8679e-02, PNorm = 67.3388, GNorm = 3.2275, lr_0 = 2.0410e-04
Loss = 1.5852e-02, PNorm = 67.3537, GNorm = 2.2969, lr_0 = 2.3769e-04
Loss = 1.2077e-02, PNorm = 67.3749, GNorm = 2.6325, lr_0 = 2.7127e-04
…
Task 0: count = 135 | target average = -6.824769


Scaffold 5
Task 0: count = 110 | target average = -2.684366


Scaffold 6
Task 0: count = 95 | target average = -1.321900


Scaffold 7
Task 0: count = 73 | target average = -5.256434


Scaffold 8
Task 0: count = 54 | target average = -4.558373


Scaffold 9
Task 0: count = 52 | target average = -1.722385


Total size = 8,400 | train size = 6,720 | val size = 840 | test size = 840
Fitting scaler
Building model 0
MoleculeModel(
  (encoder): MPN(
    (encoder): MPNEncoder(
      (dropout_layer): Dropout(p=0.35000000000000003, inplace=False)
      (act_func): ReLU()
      (W_i): Linear(in_features=147, out_features=800, bias=False)
      (W_h): Linear(in_features=800, out_features=800, bias=False)
      (W_o): Linear(in_features=933, out_features=800, bias=True)
    )
  )
  (ffn): Sequential(
    (0): Dropout(p=0.35000000000000003, inplace=False)
    (1): Linear(in_features=800, out_features=800, bias=True)
    (2): ReLU()
    (3): Dropout(p=0.35000000000000003, inplace=False)
    (4): Linear(in_features=800, out_features=800, bias=True)
    (5): ReLU()
    (6): Dropout(p=0.35000000000000003, inplace=False)
    (7): Linear(in_features=800, out_features=1, bias=True)
  )
)
Number of parameters = 2,787,201
Moving model to cuda
Epoch 0
Loss = 2.1495e-02, PNorm = 59.2468, GNorm = 4.0075, lr_0 = 1.3694e-04
Loss = 1.9868e-02, PNorm = 59.2503, GNorm = 4.7916, lr_0 = 1.7052e-04
Loss = 2.0131e-02, PNorm = 59.2559, GNorm = 4.3587, lr_0 = 2.0410e-04
Loss = 1.7962e-02, PNorm = 59.2636, GNorm = 3.3156, lr_0 = 2.3769e-04
Loss = 1.5357e-02, PNorm = 59.2753, GNorm = 4.0704, lr_0 = 2.7127e-04
…
Task 0: count = 135 | target average = -6.824769


Scaffold 5
Task 0: count = 110 | target average = -2.684366


Scaffold 6
Task 0: count = 95 | target average = -1.321900


Scaffold 7
Task 0: count = 73 | target average = -5.256434


Scaffold 8
Task 0: count = 54 | target average = -4.558373


Scaffold 9
Task 0: count = 52 | target average = -1.722385


Total size = 8,400 | train size = 6,720 | val size = 840 | test size = 840
Fitting scaler
Building model 0
MoleculeModel(
  (encoder): MPN(
    (encoder): MPNEncoder(
      (dropout_layer): Dropout(p=0.2, inplace=False)
      (act_func): ReLU()
      (W_i): Linear(in_features=147, out_features=600, bias=False)
      (W_h): Linear(in_features=600, out_features=600, bias=False)
      (W_o): Linear(in_features=733, out_features=600, bias=True)
    )
  )
  (ffn): Sequential(
    (0): Dropout(p=0.2, inplace=False)
    (1): Linear(in_features=600, out_features=600, bias=True)
    (2): ReLU()
    (3): Dropout(p=0.2, inplace=False)
    (4): Linear(in_features=600, out_features=600, bias=True)
    (5): ReLU()
    (6): Dropout(p=0.2, inplace=False)
    (7): Linear(in_features=600, out_features=1, bias=True)
  )
)
Number of parameters = 1,610,401
Moving model to cuda
Epoch 0
Loss = 2.1031e-02, PNorm = 51.9046, GNorm = 3.2750, lr_0 = 1.3694e-04
Loss = 1.8481e-02, PNorm = 51.9073, GNorm = 2.0451, lr_0 = 1.7052e-04
Loss = 1.8447e-02, PNorm = 51.9132, GNorm = 2.7148, lr_0 = 2.0410e-04
Loss = 1.5587e-02, PNorm = 51.9234, GNorm = 2.2907, lr_0 = 2.3769e-04
Loss = 1.2762e-02, PNorm = 51.9372, GNorm = 2.8673, lr_0 = 2.7127e-04
…
Task 0: count = 135 | target average = -6.824769


Scaffold 5
Task 0: count = 110 | target average = -2.684366


Scaffold 6
Task 0: count = 95 | target average = -1.321900


Scaffold 7
Task 0: count = 73 | target average = -5.256434


Scaffold 8
Task 0: count = 54 | target average = -4.558373


Scaffold 9
Task 0: count = 52 | target average = -1.722385


Total size = 8,400 | train size = 6,720 | val size = 840 | test size = 840
Fitting scaler
Building model 0
MoleculeModel(
  (encoder): MPN(
    (encoder): MPNEncoder(
      (dropout_layer): Dropout(p=0.30000000000000004, inplace=False)
      (act_func): ReLU()
      (W_i): Linear(in_features=147, out_features=2100, bias=False)
      (W_h): Linear(in_features=2100, out_features=2100, bias=False)
      (W_o): Linear(in_features=2233, out_features=2100, bias=True)
    )
  )
  (ffn): Sequential(
    (0): Dropout(p=0.30000000000000004, inplace=False)
    (1): Linear(in_features=2100, out_features=2100, bias=True)
    (2): ReLU()
    (3): Dropout(p=0.30000000000000004, inplace=False)
    (4): Linear(in_features=2100, out_features=2100, bias=True)
    (5): ReLU()
    (6): Dropout(p=0.30000000000000004, inplace=False)
    (7): Linear(in_features=2100, out_features=1, bias=True)
  )
)
Number of parameters = 18,236,401
Moving model to cuda
Epoch 0
Loss = 2.3129e-02, PNorm = 93.5145, GNorm = 5.1964, lr_0 = 1.3694e-04
Loss = 1.8717e-02, PNorm = 93.5314, GNorm = 2.5051, lr_0 = 1.7052e-04
Loss = 1.8924e-02, PNorm = 93.5517, GNorm = 2.4990, lr_0 = 2.0410e-04
Loss = 1.6132e-02, PNorm = 93.5778, GNorm = 4.4772, lr_0 = 2.3769e-04
Loss = 1.2389e-02, PNorm = 93.6090, GNorm = 3.9144, lr_0 = 2.7127e-04
…
Task 0: count = 135 | target average = -6.824769


Scaffold 5
Task 0: count = 110 | target average = -2.684366


Scaffold 6
Task 0: count = 95 | target average = -1.321900


Scaffold 7
Task 0: count = 73 | target average = -5.256434


Scaffold 8
Task 0: count = 54 | target average = -4.558373


Scaffold 9
Task 0: count = 52 | target average = -1.722385


Total size = 8,400 | train size = 6,720 | val size = 840 | test size = 840
Fitting scaler
Building model 0
MoleculeModel(
  (encoder): MPN(
    (encoder): MPNEncoder(
      (dropout_layer): Dropout(p=0.15000000000000002, inplace=False)
      (act_func): ReLU()
      (W_i): Linear(in_features=147, out_features=2300, bias=False)
      (W_h): Linear(in_features=2300, out_features=2300, bias=False)
      (W_o): Linear(in_features=2433, out_features=2300, bias=True)
    )
  )
  (ffn): Sequential(
    (0): Dropout(p=0.15000000000000002, inplace=False)
    (1): Linear(in_features=2300, out_features=2300, bias=True)
    (2): ReLU()
    (3): Dropout(p=0.15000000000000002, inplace=False)
    (4): Linear(in_features=2300, out_features=2300, bias=True)
    (5): ReLU()
    (6): Dropout(p=0.15000000000000002, inplace=False)
    (7): Linear(in_features=2300, out_features=1, bias=True)
  )
)
Number of parameters = 21,813,201
Moving model to cuda
Epoch 0
Loss = 2.0475e-02, PNorm = 97.7179, GNorm = 1.6660, lr_0 = 1.3694e-04
Loss = 1.6128e-02, PNorm = 97.7424, GNorm = 1.9326, lr_0 = 1.7052e-04
Loss = 1.4852e-02, PNorm = 97.7734, GNorm = 4.6519, lr_0 = 2.0410e-04
Loss = 1.6078e-02, PNorm = 97.8036, GNorm = 4.9609, lr_0 = 2.3769e-04
Loss = 1.3391e-02, PNorm = 97.8430, GNorm = 5.4762, lr_0 = 2.7127e-04
…
Task 0: count = 135 | target average = -6.824769


Scaffold 5
Task 0: count = 110 | target average = -2.684366


Scaffold 6
Task 0: count = 95 | target average = -1.321900


Scaffold 7
Task 0: count = 73 | target average = -5.256434


Scaffold 8
Task 0: count = 54 | target average = -4.558373


Scaffold 9
Task 0: count = 52 | target average = -1.722385


Total size = 8,400 | train size = 6,720 | val size = 840 | test size = 840
Fitting scaler
Building model 0
MoleculeModel(
  (encoder): MPN(
    (encoder): MPNEncoder(
      (dropout_layer): Dropout(p=0.30000000000000004, inplace=False)
      (act_func): ReLU()
      (W_i): Linear(in_features=147, out_features=500, bias=False)
      (W_h): Linear(in_features=500, out_features=500, bias=False)
      (W_o): Linear(in_features=633, out_features=500, bias=True)
    )
  )
  (ffn): Sequential(
    (0): Dropout(p=0.30000000000000004, inplace=False)
    (1): Linear(in_features=500, out_features=500, bias=True)
    (2): ReLU()
    (3): Dropout(p=0.30000000000000004, inplace=False)
    (4): Linear(in_features=500, out_features=500, bias=True)
    (5): ReLU()
    (6): Dropout(p=0.30000000000000004, inplace=False)
    (7): Linear(in_features=500, out_features=1, bias=True)
  )
)
Number of parameters = 1,142,001
Moving model to cuda
Epoch 0
Loss = 2.1448e-02, PNorm = 47.8599, GNorm = 4.3424, lr_0 = 1.3694e-04
Loss = 1.9035e-02, PNorm = 47.8609, GNorm = 3.3026, lr_0 = 1.7052e-04
Loss = 1.8762e-02, PNorm = 47.8644, GNorm = 4.0364, lr_0 = 2.0410e-04
Loss = 1.8177e-02, PNorm = 47.8685, GNorm = 2.6870, lr_0 = 2.3769e-04
Loss = 1.6261e-02, PNorm = 47.8765, GNorm = 3.1027, lr_0 = 2.7127e-04
…
