…
 'smiles_column': None,
 'split_sizes': (0.8, 0.1, 0.1),
 'split_type': 'random',
 'target_columns': None,
 'task_names': ['Solubility'],
 'test': False,
 'test_fold_index': None,
 'train_data_size': None,
 'undirected': False,
 'use_input_features': False,
 'val_fold_index': None,
 'warmup_epochs': 2.0}
Loading data
Number of tasks = 1
Splitting data with seed 0
Total size = 1,614 | train size = 1,291 | val size = 161 | test size = 162
Fitting scaler
Building model 0
MoleculeModel(
  (encoder): MPN(
    (encoder): MPNEncoder(
      (dropout_layer): Dropout(p=0.25, inplace=False)
      (act_func): ReLU()
      (W_i): Linear(in_features=147, out_features=500, bias=False)
      (W_h): Linear(in_features=500, out_features=500, bias=False)
      (W_o): Linear(in_features=633, out_features=500, bias=True)
    )
  )
  (ffn): Sequential(
    (0): Dropout(p=0.25, inplace=False)
    (1): Linear(in_features=500, out_features=500, bias=True)
    (2): ReLU()
    (3): Dropout(p=0.25, inplace=False)
    (4): Linear(in_features=500, out_features=1, bias=True)
  )
)
Number of parameters = 891,501
Moving model to cuda
Epoch 0
Loss = 1.6864e-02, PNorm = 42.2775, GNorm = 4.8147, lr_0 = 2.9800e-04
Loss = 1.6678e-02, PNorm = 42.2907, GNorm = 2.9418, lr_0 = 4.7800e-04
Validation rmse = 1.461073
Epoch 1
Loss = 1.1780e-02, PNorm = 42.3217, GNorm = 5.2118, lr_0 = 6.7600e-04
Loss = 1.1311e-02, PNorm = 42.3581, GNorm = 6.2262, lr_0 = 8.5600e-04
…
 'smiles_column': None,
 'split_sizes': (0.8, 0.1, 0.1),
 'split_type': 'random',
 'target_columns': None,
 'task_names': ['Solubility'],
 'test': False,
 'test_fold_index': None,
 'train_data_size': None,
 'undirected': False,
 'use_input_features': False,
 'val_fold_index': None,
 'warmup_epochs': 2.0}
Loading data
Number of tasks = 1
Splitting data with seed 0
Total size = 1,614 | train size = 1,291 | val size = 161 | test size = 162
Fitting scaler
Building model 0
MoleculeModel(
  (encoder): MPN(
    (encoder): MPNEncoder(
      (dropout_layer): Dropout(p=0.0, inplace=False)
      (act_func): ReLU()
      (W_i): Linear(in_features=147, out_features=2400, bias=False)
      (W_h): Linear(in_features=2400, out_features=2400, bias=False)
      (W_o): Linear(in_features=2533, out_features=2400, bias=True)
    )
  )
  (ffn): Sequential(
    (0): Dropout(p=0.0, inplace=False)
    (1): Linear(in_features=2400, out_features=2400, bias=True)
    (2): ReLU()
    (3): Dropout(p=0.0, inplace=False)
    (4): Linear(in_features=2400, out_features=2400, bias=True)
    (5): ReLU()
    (6): Dropout(p=0.0, inplace=False)
    (7): Linear(in_features=2400, out_features=1, bias=True)
  )
)
Number of parameters = 23,721,601
Moving model to cuda
Epoch 0
Loss = 1.6832e-02, PNorm = 99.7630, GNorm = 6.2472, lr_0 = 2.9800e-04
Loss = 1.3537e-02, PNorm = 99.8589, GNorm = 3.9231, lr_0 = 4.7800e-04
Validation rmse = 1.306054
Epoch 1
Loss = 7.6593e-03, PNorm = 100.0398, GNorm = 3.4404, lr_0 = 6.7600e-04
Loss = 9.6692e-03, PNorm = 100.2520, GNorm = 4.2460, lr_0 = 8.5600e-04
…
 'smiles_column': None,
 'split_sizes': (0.8, 0.1, 0.1),
 'split_type': 'random',
 'target_columns': None,
 'task_names': ['Solubility'],
 'test': False,
 'test_fold_index': None,
 'train_data_size': None,
 'undirected': False,
 'use_input_features': False,
 'val_fold_index': None,
 'warmup_epochs': 2.0}
Loading data
Number of tasks = 1
Splitting data with seed 0
Total size = 1,614 | train size = 1,291 | val size = 161 | test size = 162
Fitting scaler
Building model 0
MoleculeModel(
  (encoder): MPN(
    (encoder): MPNEncoder(
      (dropout_layer): Dropout(p=0.05, inplace=False)
      (act_func): ReLU()
      (W_i): Linear(in_features=147, out_features=1800, bias=False)
      (W_h): Linear(in_features=1800, out_features=1800, bias=False)
      (W_o): Linear(in_features=1933, out_features=1800, bias=True)
    )
  )
  (ffn): Sequential(
    (0): Dropout(p=0.05, inplace=False)
    (1): Linear(in_features=1800, out_features=1800, bias=True)
    (2): ReLU()
    (3): Dropout(p=0.05, inplace=False)
    (4): Linear(in_features=1800, out_features=1, bias=True)
  )
)
Number of parameters = 10,229,401
Moving model to cuda
Epoch 0
Loss = 1.6106e-02, PNorm = 75.7834, GNorm = 7.2294, lr_0 = 2.9800e-04
Loss = 1.1742e-02, PNorm = 75.8394, GNorm = 7.2244, lr_0 = 4.7800e-04
Validation rmse = 1.314188
Epoch 1
Loss = 8.2911e-03, PNorm = 75.9249, GNorm = 4.9557, lr_0 = 6.7600e-04
Loss = 6.0000e-03, PNorm = 76.0146, GNorm = 6.1743, lr_0 = 8.5600e-04
…
 'smiles_column': None,
 'split_sizes': (0.8, 0.1, 0.1),
 'split_type': 'random',
 'target_columns': None,
 'task_names': ['Solubility'],
 'test': False,
 'test_fold_index': None,
 'train_data_size': None,
 'undirected': False,
 'use_input_features': False,
 'val_fold_index': None,
 'warmup_epochs': 2.0}
Loading data
Number of tasks = 1
Splitting data with seed 0
Total size = 1,614 | train size = 1,291 | val size = 161 | test size = 162
Fitting scaler
Building model 0
MoleculeModel(
  (encoder): MPN(
    (encoder): MPNEncoder(
      (dropout_layer): Dropout(p=0.1, inplace=False)
      (act_func): ReLU()
      (W_i): Linear(in_features=147, out_features=1300, bias=False)
      (W_h): Linear(in_features=1300, out_features=1300, bias=False)
      (W_o): Linear(in_features=1433, out_features=1300, bias=True)
    )
  )
  (ffn): Sequential(
    (0): Dropout(p=0.1, inplace=False)
    (1): Linear(in_features=1300, out_features=1300, bias=True)
    (2): ReLU()
    (3): Dropout(p=0.1, inplace=False)
    (4): Linear(in_features=1300, out_features=1, bias=True)
  )
)
Number of parameters = 5,437,901
Moving model to cuda
Epoch 0
Loss = 1.6796e-02, PNorm = 65.0286, GNorm = 9.0341, lr_0 = 2.9800e-04
Loss = 1.3104e-02, PNorm = 65.0752, GNorm = 3.2914, lr_0 = 4.7800e-04
Validation rmse = 1.648737
Epoch 1
Loss = 8.7812e-03, PNorm = 65.1500, GNorm = 4.6956, lr_0 = 6.7600e-04
Loss = 8.2752e-03, PNorm = 65.2400, GNorm = 7.8968, lr_0 = 8.5600e-04
…
