…
Task 0: count = 17 | target average = -3.224341


Scaffold 5
Task 0: count = 16 | target average = -4.464013


Scaffold 6
Task 0: count = 14 | target average = -6.399748


Scaffold 7
Task 0: count = 14 | target average = -5.140965


Scaffold 8
Task 0: count = 13 | target average = -2.054289


Scaffold 9
Task 0: count = 11 | target average = -2.998033


Total size = 1,227 | train size = 981 | val size = 122 | test size = 124
Fitting scaler
Building model 0
MoleculeModel(
  (encoder): MPN(
    (encoder): MPNEncoder(
      (dropout_layer): Dropout(p=0.2, inplace=False)
      (act_func): ReLU()
      (W_i): Linear(in_features=147, out_features=600, bias=False)
      (W_h): Linear(in_features=600, out_features=600, bias=False)
      (W_o): Linear(in_features=733, out_features=600, bias=True)
    )
  )
  (ffn): Sequential(
    (0): Dropout(p=0.2, inplace=False)
    (1): Linear(in_features=604, out_features=600, bias=True)
    (2): ReLU()
    (3): Dropout(p=0.2, inplace=False)
    (4): Linear(in_features=600, out_features=600, bias=True)
    (5): ReLU()
    (6): Dropout(p=0.2, inplace=False)
    (7): Linear(in_features=600, out_features=1, bias=True)
  )
)
Number of parameters = 1,612,801
Moving model to cuda
Epoch 0
Loss = 1.4471e-02, PNorm = 51.9370, GNorm = 5.8594, lr_0 = 3.6053e-04
Validation rmse = 1.153505
Epoch 1
Loss = 6.9424e-03, PNorm = 51.9675, GNorm = 3.2740, lr_0 = 6.2105e-04
Loss = 5.9481e-03, PNorm = 52.0098, GNorm = 1.6225, lr_0 = 8.5789e-04
Validation rmse = 1.029799
Epoch 2
Loss = 6.3140e-03, PNorm = 52.0550, GNorm = 1.3535, lr_0 = 9.8284e-04
…
Task 0: count = 17 | target average = -3.224341


Scaffold 5
Task 0: count = 16 | target average = -4.464013


Scaffold 6
Task 0: count = 14 | target average = -6.399748


Scaffold 7
Task 0: count = 14 | target average = -5.140965


Scaffold 8
Task 0: count = 13 | target average = -2.054289


Scaffold 9
Task 0: count = 11 | target average = -2.998033


Total size = 1,227 | train size = 981 | val size = 122 | test size = 124
Fitting scaler
Building model 0
MoleculeModel(
  (encoder): MPN(
    (encoder): MPNEncoder(
      (dropout_layer): Dropout(p=0.30000000000000004, inplace=False)
      (act_func): ReLU()
      (W_i): Linear(in_features=147, out_features=2100, bias=False)
      (W_h): Linear(in_features=2100, out_features=2100, bias=False)
      (W_o): Linear(in_features=2233, out_features=2100, bias=True)
    )
  )
  (ffn): Sequential(
    (0): Dropout(p=0.30000000000000004, inplace=False)
    (1): Linear(in_features=2104, out_features=2100, bias=True)
    (2): ReLU()
    (3): Dropout(p=0.30000000000000004, inplace=False)
    (4): Linear(in_features=2100, out_features=2100, bias=True)
    (5): ReLU()
    (6): Dropout(p=0.30000000000000004, inplace=False)
    (7): Linear(in_features=2100, out_features=1, bias=True)
  )
)
Number of parameters = 18,244,801
Moving model to cuda
Epoch 0
Loss = 1.6060e-02, PNorm = 93.5607, GNorm = 5.0308, lr_0 = 3.6053e-04
Validation rmse = 1.259673
Epoch 1
Loss = 6.8249e-03, PNorm = 93.7009, GNorm = 2.3597, lr_0 = 6.2105e-04
Loss = 6.5678e-03, PNorm = 93.8741, GNorm = 1.9491, lr_0 = 8.5789e-04
Validation rmse = 1.122827
Epoch 2
Loss = 3.6407e-03, PNorm = 94.0463, GNorm = 1.5591, lr_0 = 9.8284e-04
…
Task 0: count = 17 | target average = -3.224341


Scaffold 5
Task 0: count = 16 | target average = -4.464013


Scaffold 6
Task 0: count = 14 | target average = -6.399748


Scaffold 7
Task 0: count = 14 | target average = -5.140965


Scaffold 8
Task 0: count = 13 | target average = -2.054289


Scaffold 9
Task 0: count = 11 | target average = -2.998033


Total size = 1,227 | train size = 981 | val size = 122 | test size = 124
Fitting scaler
Building model 0
MoleculeModel(
  (encoder): MPN(
    (encoder): MPNEncoder(
      (dropout_layer): Dropout(p=0.15000000000000002, inplace=False)
      (act_func): ReLU()
      (W_i): Linear(in_features=147, out_features=2300, bias=False)
      (W_h): Linear(in_features=2300, out_features=2300, bias=False)
      (W_o): Linear(in_features=2433, out_features=2300, bias=True)
    )
  )
  (ffn): Sequential(
    (0): Dropout(p=0.15000000000000002, inplace=False)
    (1): Linear(in_features=2304, out_features=2300, bias=True)
    (2): ReLU()
    (3): Dropout(p=0.15000000000000002, inplace=False)
    (4): Linear(in_features=2300, out_features=2300, bias=True)
    (5): ReLU()
    (6): Dropout(p=0.15000000000000002, inplace=False)
    (7): Linear(in_features=2300, out_features=1, bias=True)
  )
)
Number of parameters = 21,822,401
Moving model to cuda
Epoch 0
Loss = 1.2211e-02, PNorm = 97.7631, GNorm = 2.1941, lr_0 = 3.6053e-04
Validation rmse = 1.067528
Epoch 1
Loss = 3.4217e-03, PNorm = 97.9005, GNorm = 1.1003, lr_0 = 6.2105e-04
Loss = 4.2437e-03, PNorm = 98.0641, GNorm = 1.3537, lr_0 = 8.5789e-04
Validation rmse = 1.036261
Epoch 2
Loss = 4.1944e-03, PNorm = 98.2445, GNorm = 1.6044, lr_0 = 9.8284e-04
…
Task 0: count = 17 | target average = -3.224341


Scaffold 5
Task 0: count = 16 | target average = -4.464013


Scaffold 6
Task 0: count = 14 | target average = -6.399748


Scaffold 7
Task 0: count = 14 | target average = -5.140965


Scaffold 8
Task 0: count = 13 | target average = -2.054289


Scaffold 9
Task 0: count = 11 | target average = -2.998033


Total size = 1,227 | train size = 981 | val size = 122 | test size = 124
Fitting scaler
Building model 0
MoleculeModel(
  (encoder): MPN(
    (encoder): MPNEncoder(
      (dropout_layer): Dropout(p=0.30000000000000004, inplace=False)
      (act_func): ReLU()
      (W_i): Linear(in_features=147, out_features=1400, bias=False)
      (W_h): Linear(in_features=1400, out_features=1400, bias=False)
      (W_o): Linear(in_features=1533, out_features=1400, bias=True)
    )
  )
  (ffn): Sequential(
    (0): Dropout(p=0.30000000000000004, inplace=False)
    (1): Linear(in_features=1404, out_features=1400, bias=True)
    (2): ReLU()
    (3): Dropout(p=0.30000000000000004, inplace=False)
    (4): Linear(in_features=1400, out_features=1, bias=True)
  )
)
Number of parameters = 6,281,801
Moving model to cuda
Epoch 0
Loss = 1.4825e-02, PNorm = 67.3621, GNorm = 7.1374, lr_0 = 3.6053e-04
Validation rmse = 1.700404
Epoch 1
Loss = 9.6113e-03, PNorm = 67.4395, GNorm = 6.5976, lr_0 = 6.2105e-04
Loss = 7.0848e-03, PNorm = 67.5406, GNorm = 3.5068, lr_0 = 8.5789e-04
Validation rmse = 1.015810
Epoch 2
Loss = 7.1799e-03, PNorm = 67.6607, GNorm = 1.2967, lr_0 = 9.8284e-04
…
Task 0: count = 17 | target average = -3.224341


Scaffold 5
Task 0: count = 16 | target average = -4.464013


Scaffold 6
Task 0: count = 14 | target average = -6.399748


Scaffold 7
Task 0: count = 14 | target average = -5.140965


Scaffold 8
Task 0: count = 13 | target average = -2.054289


Scaffold 9
Task 0: count = 11 | target average = -2.998033


Total size = 1,227 | train size = 981 | val size = 122 | test size = 124
Fitting scaler
Building model 0
MoleculeModel(
  (encoder): MPN(
    (encoder): MPNEncoder(
      (dropout_layer): Dropout(p=0.30000000000000004, inplace=False)
      (act_func): ReLU()
      (W_i): Linear(in_features=147, out_features=500, bias=False)
      (W_h): Linear(in_features=500, out_features=500, bias=False)
      (W_o): Linear(in_features=633, out_features=500, bias=True)
    )
  )
  (ffn): Sequential(
    (0): Dropout(p=0.30000000000000004, inplace=False)
    (1): Linear(in_features=504, out_features=500, bias=True)
    (2): ReLU()
    (3): Dropout(p=0.30000000000000004, inplace=False)
    (4): Linear(in_features=500, out_features=500, bias=True)
    (5): ReLU()
    (6): Dropout(p=0.30000000000000004, inplace=False)
    (7): Linear(in_features=500, out_features=1, bias=True)
  )
)
Number of parameters = 1,144,001
Moving model to cuda
Epoch 0
Loss = 1.9740e-02, PNorm = 47.8848, GNorm = 7.4042, lr_0 = 3.6053e-04
Validation rmse = 1.149127
Epoch 1
Loss = 9.3269e-03, PNorm = 47.9073, GNorm = 5.3718, lr_0 = 6.2105e-04
Loss = 9.3840e-03, PNorm = 47.9351, GNorm = 2.5654, lr_0 = 8.5789e-04
Validation rmse = 1.362761
Epoch 2
Loss = 5.6512e-03, PNorm = 47.9716, GNorm = 4.3449, lr_0 = 9.8284e-04
…
Task 0: count = 17 | target average = -3.224341


Scaffold 5
Task 0: count = 16 | target average = -4.464013


Scaffold 6
Task 0: count = 14 | target average = -6.399748


Scaffold 7
Task 0: count = 14 | target average = -5.140965


Scaffold 8
Task 0: count = 13 | target average = -2.054289


Scaffold 9
Task 0: count = 11 | target average = -2.998033


Total size = 1,227 | train size = 981 | val size = 122 | test size = 124
Fitting scaler
Building model 0
MoleculeModel(
  (encoder): MPN(
    (encoder): MPNEncoder(
      (dropout_layer): Dropout(p=0.1, inplace=False)
      (act_func): ReLU()
      (W_i): Linear(in_features=147, out_features=1100, bias=False)
      (W_h): Linear(in_features=1100, out_features=1100, bias=False)
      (W_o): Linear(in_features=1233, out_features=1100, bias=True)
    )
  )
  (ffn): Sequential(
    (0): Dropout(p=0.1, inplace=False)
    (1): Linear(in_features=1104, out_features=1100, bias=True)
    (2): ReLU()
    (3): Dropout(p=0.1, inplace=False)
    (4): Linear(in_features=1100, out_features=1, bias=True)
  )
)
Number of parameters = 3,945,701
Moving model to cuda
Epoch 0
Loss = 1.2844e-02, PNorm = 60.2472, GNorm = 9.5254, lr_0 = 3.6053e-04
Validation rmse = 1.424368
Epoch 1
Loss = 3.8082e-03, PNorm = 60.2977, GNorm = 2.3147, lr_0 = 6.2105e-04
Loss = 4.1462e-03, PNorm = 60.3594, GNorm = 1.2321, lr_0 = 8.5789e-04
Validation rmse = 1.087199
Epoch 2
Loss = 5.0970e-03, PNorm = 60.4240, GNorm = 1.1302, lr_0 = 9.8284e-04
…
Task 0: count = 17 | target average = -3.224341


Scaffold 5
Task 0: count = 16 | target average = -4.464013


Scaffold 6
Task 0: count = 14 | target average = -6.399748


Scaffold 7
Task 0: count = 14 | target average = -5.140965


Scaffold 8
Task 0: count = 13 | target average = -2.054289


Scaffold 9
Task 0: count = 11 | target average = -2.998033


Total size = 1,227 | train size = 981 | val size = 122 | test size = 124
Fitting scaler
Building model 0
MoleculeModel(
  (encoder): MPN(
    (encoder): MPNEncoder(
      (dropout_layer): Dropout(p=0.25, inplace=False)
      (act_func): ReLU()
      (W_i): Linear(in_features=147, out_features=500, bias=False)
      (W_h): Linear(in_features=500, out_features=500, bias=False)
      (W_o): Linear(in_features=633, out_features=500, bias=True)
    )
  )
  (ffn): Sequential(
    (0): Dropout(p=0.25, inplace=False)
    (1): Linear(in_features=504, out_features=500, bias=True)
    (2): ReLU()
    (3): Dropout(p=0.25, inplace=False)
    (4): Linear(in_features=500, out_features=1, bias=True)
  )
)
Number of parameters = 893,501
Moving model to cuda
Epoch 0
Loss = 1.4140e-02, PNorm = 42.2985, GNorm = 5.4096, lr_0 = 3.6053e-04
Validation rmse = 2.080914
Epoch 1
Loss = 7.6604e-03, PNorm = 42.3208, GNorm = 6.0917, lr_0 = 6.2105e-04
Loss = 6.9374e-03, PNorm = 42.3520, GNorm = 1.5876, lr_0 = 8.5789e-04
Validation rmse = 1.412237
Epoch 2
Loss = 8.8900e-03, PNorm = 42.3871, GNorm = 3.8158, lr_0 = 9.8284e-04
…
Task 0: count = 17 | target average = -3.224341


Scaffold 5
Task 0: count = 16 | target average = -4.464013


Scaffold 6
Task 0: count = 14 | target average = -6.399748


Scaffold 7
Task 0: count = 14 | target average = -5.140965


Scaffold 8
Task 0: count = 13 | target average = -2.054289


Scaffold 9
Task 0: count = 11 | target average = -2.998033


Total size = 1,227 | train size = 981 | val size = 122 | test size = 124
Fitting scaler
Building model 0
MoleculeModel(
  (encoder): MPN(
    (encoder): MPNEncoder(
      (dropout_layer): Dropout(p=0.0, inplace=False)
      (act_func): ReLU()
      (W_i): Linear(in_features=147, out_features=2400, bias=False)
      (W_h): Linear(in_features=2400, out_features=2400, bias=False)
      (W_o): Linear(in_features=2533, out_features=2400, bias=True)
    )
  )
  (ffn): Sequential(
    (0): Dropout(p=0.0, inplace=False)
    (1): Linear(in_features=2404, out_features=2400, bias=True)
    (2): ReLU()
    (3): Dropout(p=0.0, inplace=False)
    (4): Linear(in_features=2400, out_features=2400, bias=True)
    (5): ReLU()
    (6): Dropout(p=0.0, inplace=False)
    (7): Linear(in_features=2400, out_features=1, bias=True)
  )
)
Number of parameters = 23,731,201
Moving model to cuda
Epoch 0
Loss = 1.1164e-02, PNorm = 99.7845, GNorm = 4.8578, lr_0 = 3.6053e-04
Validation rmse = 1.030123
Epoch 1
Loss = 1.5665e-03, PNorm = 99.9167, GNorm = 0.7728, lr_0 = 6.2105e-04
Loss = 4.1995e-03, PNorm = 100.0776, GNorm = 1.9325, lr_0 = 8.5789e-04
Validation rmse = 0.885328
Epoch 2
Loss = 3.9594e-03, PNorm = 100.2798, GNorm = 0.6321, lr_0 = 9.8284e-04
…
Task 0: count = 17 | target average = -3.224341


Scaffold 5
Task 0: count = 16 | target average = -4.464013


Scaffold 6
Task 0: count = 14 | target average = -6.399748


Scaffold 7
Task 0: count = 14 | target average = -5.140965


Scaffold 8
Task 0: count = 13 | target average = -2.054289


Scaffold 9
Task 0: count = 11 | target average = -2.998033


Total size = 1,227 | train size = 981 | val size = 122 | test size = 124
Fitting scaler
Building model 0
MoleculeModel(
  (encoder): MPN(
    (encoder): MPNEncoder(
      (dropout_layer): Dropout(p=0.05, inplace=False)
      (act_func): ReLU()
      (W_i): Linear(in_features=147, out_features=1800, bias=False)
      (W_h): Linear(in_features=1800, out_features=1800, bias=False)
      (W_o): Linear(in_features=1933, out_features=1800, bias=True)
    )
  )
  (ffn): Sequential(
    (0): Dropout(p=0.05, inplace=False)
    (1): Linear(in_features=1804, out_features=1800, bias=True)
    (2): ReLU()
    (3): Dropout(p=0.05, inplace=False)
    (4): Linear(in_features=1800, out_features=1, bias=True)
  )
)
Number of parameters = 10,236,601
Moving model to cuda
Epoch 0
Loss = 1.4251e-02, PNorm = 75.8050, GNorm = 7.6143, lr_0 = 3.6053e-04
Validation rmse = 1.111676
Epoch 1
Loss = 3.0200e-03, PNorm = 75.8954, GNorm = 0.7271, lr_0 = 6.2105e-04
Loss = 4.0213e-03, PNorm = 75.9885, GNorm = 0.8355, lr_0 = 8.5789e-04
Validation rmse = 1.067722
Epoch 2
Loss = 6.2501e-03, PNorm = 76.0768, GNorm = 1.8816, lr_0 = 9.8284e-04
…
Task 0: count = 17 | target average = -3.224341


Scaffold 5
Task 0: count = 16 | target average = -4.464013


Scaffold 6
Task 0: count = 14 | target average = -6.399748


Scaffold 7
Task 0: count = 14 | target average = -5.140965


Scaffold 8
Task 0: count = 13 | target average = -2.054289


Scaffold 9
Task 0: count = 11 | target average = -2.998033


Total size = 1,227 | train size = 981 | val size = 122 | test size = 124
Fitting scaler
Building model 0
MoleculeModel(
  (encoder): MPN(
    (encoder): MPNEncoder(
      (dropout_layer): Dropout(p=0.1, inplace=False)
      (act_func): ReLU()
      (W_i): Linear(in_features=147, out_features=1300, bias=False)
      (W_h): Linear(in_features=1300, out_features=1300, bias=False)
      (W_o): Linear(in_features=1433, out_features=1300, bias=True)
    )
  )
  (ffn): Sequential(
    (0): Dropout(p=0.1, inplace=False)
    (1): Linear(in_features=1304, out_features=1300, bias=True)
    (2): ReLU()
    (3): Dropout(p=0.1, inplace=False)
    (4): Linear(in_features=1300, out_features=1, bias=True)
  )
)
Number of parameters = 5,443,101
Moving model to cuda
Epoch 0
Loss = 1.4046e-02, PNorm = 65.0506, GNorm = 10.4619, lr_0 = 3.6053e-04
Validation rmse = 1.236774
Epoch 1
Loss = 4.5048e-03, PNorm = 65.1122, GNorm = 2.1521, lr_0 = 6.2105e-04
Loss = 4.9230e-03, PNorm = 65.1948, GNorm = 0.8839, lr_0 = 8.5789e-04
Validation rmse = 0.972923
Epoch 2
Loss = 5.5338e-03, PNorm = 65.2796, GNorm = 1.4107, lr_0 = 9.8284e-04
…
