…
Task 0: count = 135 | target average = -6.824769


Scaffold 5
Task 0: count = 110 | target average = -2.684366


Scaffold 6
Task 0: count = 95 | target average = -1.321900


Scaffold 7
Task 0: count = 73 | target average = -5.256434


Scaffold 8
Task 0: count = 54 | target average = -4.558373


Scaffold 9
Task 0: count = 52 | target average = -1.722385


Total size = 8,400 | train size = 6,720 | val size = 840 | test size = 840
Fitting scaler
Building model 0
MoleculeModel(
  (encoder): MPN(
    (encoder): MPNEncoder(
      (dropout_layer): Dropout(p=0.15000000000000002, inplace=False)
      (act_func): ReLU()
      (W_i): Linear(in_features=147, out_features=2300, bias=False)
      (W_h): Linear(in_features=2300, out_features=2300, bias=False)
      (W_o): Linear(in_features=2433, out_features=2300, bias=True)
    )
  )
  (ffn): Sequential(
    (0): Dropout(p=0.15000000000000002, inplace=False)
    (1): Linear(in_features=2305, out_features=2300, bias=True)
    (2): ReLU()
    (3): Dropout(p=0.15000000000000002, inplace=False)
    (4): Linear(in_features=2300, out_features=2300, bias=True)
    (5): ReLU()
    (6): Dropout(p=0.15000000000000002, inplace=False)
    (7): Linear(in_features=2300, out_features=1, bias=True)
  )
)
Number of parameters = 21,824,701
Moving model to cuda
Epoch 0
Loss = 2.0191e-02, PNorm = 97.7281, GNorm = 2.3865, lr_0 = 1.3694e-04
Loss = 1.5452e-02, PNorm = 97.7504, GNorm = 1.9980, lr_0 = 1.7052e-04
Loss = 1.4794e-02, PNorm = 97.7789, GNorm = 3.1123, lr_0 = 2.0410e-04
Loss = 1.1231e-02, PNorm = 97.8172, GNorm = 1.0574, lr_0 = 2.3769e-04
Loss = 7.7209e-03, PNorm = 97.8611, GNorm = 4.5392, lr_0 = 2.7127e-04
…
Task 0: count = 135 | target average = -6.824769


Scaffold 5
Task 0: count = 110 | target average = -2.684366


Scaffold 6
Task 0: count = 95 | target average = -1.321900


Scaffold 7
Task 0: count = 73 | target average = -5.256434


Scaffold 8
Task 0: count = 54 | target average = -4.558373


Scaffold 9
Task 0: count = 52 | target average = -1.722385


Total size = 8,400 | train size = 6,720 | val size = 840 | test size = 840
Fitting scaler
Building model 0
MoleculeModel(
  (encoder): MPN(
    (encoder): MPNEncoder(
      (dropout_layer): Dropout(p=0.30000000000000004, inplace=False)
      (act_func): ReLU()
      (W_i): Linear(in_features=147, out_features=1400, bias=False)
      (W_h): Linear(in_features=1400, out_features=1400, bias=False)
      (W_o): Linear(in_features=1533, out_features=1400, bias=True)
    )
  )
  (ffn): Sequential(
    (0): Dropout(p=0.30000000000000004, inplace=False)
    (1): Linear(in_features=1405, out_features=1400, bias=True)
    (2): ReLU()
    (3): Dropout(p=0.30000000000000004, inplace=False)
    (4): Linear(in_features=1400, out_features=1, bias=True)
  )
)
Number of parameters = 6,283,201
Moving model to cuda
Epoch 0
Loss = 2.2497e-02, PNorm = 67.3222, GNorm = 4.1802, lr_0 = 1.3694e-04
Loss = 1.7897e-02, PNorm = 67.3316, GNorm = 5.1484, lr_0 = 1.7052e-04
Loss = 1.6286e-02, PNorm = 67.3441, GNorm = 2.4080, lr_0 = 2.0410e-04
Loss = 1.4530e-02, PNorm = 67.3625, GNorm = 3.0066, lr_0 = 2.3769e-04
Loss = 1.1569e-02, PNorm = 67.3914, GNorm = 4.2753, lr_0 = 2.7127e-04
…
Task 0: count = 135 | target average = -6.824769


Scaffold 5
Task 0: count = 110 | target average = -2.684366


Scaffold 6
Task 0: count = 95 | target average = -1.321900


Scaffold 7
Task 0: count = 73 | target average = -5.256434


Scaffold 8
Task 0: count = 54 | target average = -4.558373


Scaffold 9
Task 0: count = 52 | target average = -1.722385


Total size = 8,400 | train size = 6,720 | val size = 840 | test size = 840
Fitting scaler
Building model 0
MoleculeModel(
  (encoder): MPN(
    (encoder): MPNEncoder(
      (dropout_layer): Dropout(p=0.30000000000000004, inplace=False)
      (act_func): ReLU()
      (W_i): Linear(in_features=147, out_features=500, bias=False)
      (W_h): Linear(in_features=500, out_features=500, bias=False)
      (W_o): Linear(in_features=633, out_features=500, bias=True)
    )
  )
  (ffn): Sequential(
    (0): Dropout(p=0.30000000000000004, inplace=False)
    (1): Linear(in_features=505, out_features=500, bias=True)
    (2): ReLU()
    (3): Dropout(p=0.30000000000000004, inplace=False)
    (4): Linear(in_features=500, out_features=500, bias=True)
    (5): ReLU()
    (6): Dropout(p=0.30000000000000004, inplace=False)
    (7): Linear(in_features=500, out_features=1, bias=True)
  )
)
Number of parameters = 1,144,501
Moving model to cuda
Epoch 0
Loss = 2.2971e-02, PNorm = 47.8612, GNorm = 5.3213, lr_0 = 1.3694e-04
Loss = 1.7792e-02, PNorm = 47.8626, GNorm = 3.1547, lr_0 = 1.7052e-04
Loss = 1.8073e-02, PNorm = 47.8655, GNorm = 4.2180, lr_0 = 2.0410e-04
Loss = 1.6166e-02, PNorm = 47.8693, GNorm = 3.4274, lr_0 = 2.3769e-04
Loss = 1.5186e-02, PNorm = 47.8757, GNorm = 2.6716, lr_0 = 2.7127e-04
…
